weight.txt.npy (npy, 3280 bytes, 1 tensors)

array (column-major) f8 [16, 25]
00000000: 6363 cd9a ac25 9c3f 7c30 d168 5eed 6ebf
00000010: ba2d fd10 9074 70bf ae0b b48e a68e 913f
00000020: e175 7889 1eeb 823f 6fd2 0591 2541 a33f
00000030: b694 338a 803a 9e3f 9de9 c20f ab76 853f
00000040: 02c6 a334 8aef 7bbf c66d 5ba0 fb1a 8bbf
00000050: 0f84 7c76 87a8 33bf a3cc b586 06ec 673f
00000060: be5a 8d0e 5347 49bf a634 d1e4 c359 993f
00000070: ecbb 6ff8 3028 7bbf 52a1 7f0b 435f 5ebf
00000080: 1405 35cc dae1 a13f 860f aa10 6c59 92bf
00000090: 9808 96e9 9e3d 99bf a5c4 7a2b 047c 913f
000000a0: 3b4e 9f70 a700 683f 44f9 2290 5fef ae3f
000000b0: 32ca 4713 d722 a63f d9fc e09e 8097 7e3f
000000c0: b365 d4fd 51e9 9dbf 2a42 063c 907d a9bf
000000d0: eb53 aa4e 0383 90bf bfe4 acbe be50 80bf
000000e0: eef3 3b92 7ce2 88bf 74d9 fd3d dbff 9d3f
000000f0: 7144 f251 df86 9abf 4251 d06d 86df 8fbf
00000100: 706b 7112 ef70 a53f 96a6 c1cb 9a33 a1bf
00000110: af57 adfc 0e62 a6bf 84b1 765c aaac 903f
00000120: aa9f b94e 320c 74bf 33c4 8206 8460 b53f
00000130: 1ad8 849c 1998 ab3f 594b ce06 3372 753f
00000140: 634e 79e4 1d4a aabf 472a 5672 7e26 b4bf
00000150: aa05 7428 ab3f 9ebf d094 8398 36ce 94bf
00000160: b4c1 f6df 5896 98bf baf1 b5f9 f363 a23f
00000170: 6a9b bc45 be93 a8bf 88de 1b88 6092 9dbf
00000180: 3ae0 4007 77d1 a73f f8e9 f7fb d281 a8bf
00000190: 7edc a164 2600 b0bf 5265 e31d 9d5e 8a3f
000001a0: cf10 57b6 1e55 88bf 2b45 f6d7 11b8 b83f
000001b0: 89cc bd7f 4b78 af3f e8f3 28b1 cd0a 41bf
000001c0: 53c3 9765 8979 b1bf 0824 0d28 2747 bbbf
000001d0: 22a1 9267 c762 a7bf f3a0 e989 7c28 9fbf
000001e0: 19ba 112a e79d a3bf 15d1 d24a 1fb9 a23f
000001f0: b1c5 8f0a cffe b0bf 5c9c 6b71 f35e a6bf
00000200: f601 4bc1 17eb a63f 6d4b 1169 5bb4 adbf
00000210: 891b f5e0 40d2 b1bf 90f3 96d7 8399 7b3f
00000220: a168 181a 839c 93bf ca23 2bc8 c6e6 ba3f
00000230: 4467 1426 b7a9 b03f 8aa2 9bdd f2de 72bf
00000240: a6f1 b283 7295 b3bf c6f5 c7e2 9d3f bebf
00000250: fca0 75f6 5fdf aabf 8e2f 1e8e 3694 a3bf
00000260: c53b 4494 830b a7bf 1e4e 89ff c9d5 a13f
00000270: ae22 cf74 278d b3bf 8ea3 1077 abdf a9bf
00000280: e9f1 a06e 3625 9f3f b919 fc86 79ae 80bf
00000290: 1200 1133 69e3 8ebf 3b8d ca1e 9626 903f
000002a0: 55c6 e3b3 46ec 833f 47ae 8b7a 7e7f a73f
000002b0: 9771 4103 d738 a33f bcaa abc8 f12b 873f
000002c0: 8da4 04d8 6d71 90bf 944f a696 6abc 9abf
000002d0: a831 5ea5 0e3d 76bf 4ec9 c00c fc56 5abf
000002e0: 2c72 cee3 130a 61bf 3e3d b555 a456 9f3f
000002f0: b55e f317 4f98 92bf d99d 40ee 4873 72bf
00000300: e610 52db 6a87 a63f acea 63e1 14f9 9bbf
00000310: 4d4c 757f 5fdc a1bf 8d08 cd2c 2233 933f
00000320: 0f28 dbf0 397f 393f 280a d200 41ba b33f
00000330: 0ad3 dfa0 7a88 aa3f 3821 cfd4 88ca 7e3f
00000340: 8317 8995 1dbf a4bf 231d 0fce b0e2 b0bf
00000350: 1220 2fa1 5c27 98bf 6a3a 48ac f4bd 8ebf
00000360: 6d18 3691 0ddd 92bf 33cc 29b3 14c8 a13f
00000370: ab55 c891 cf31 a4bf 9543 945b e97e 97bf
00000380: 071f 4c49 1e59 aa3f 2767 cad6 fcbc a8bf
00000390: 4f59 1bac 0827 afbf 7dfc fd6f e24b 8d3f
000003a0: 822d c9ef 2ac8 83bf d5b1 26a9 2524 ba3f
000003b0: 92ad f649 7dbb b03f 740b b470 bcbd 553f
000003c0: f266 023b fddb b0bf dacb 2a02 fdae babf
000003d0: cd2d 4128 9eeb a5bf 575c d9e5 0a56 9ebf
000003e0: 554c fc4f 3099 a2bf e3d6 ff02 b9fd a33f
000003f0: 0238 0e6b 247d b0bf 09b1 6c07 02ff a3bf
00000400: 0e8e e069 a203 ab3f 6f87 c4ea 0e2a b0bf
00000410: 0d2d 270b 540e b4bf 1ec3 1fe8 e44b 8a3f
00000420: 20e9 ef37 82f1 90bf 0617 1995 f48e bd3f
00000430: 7187 af38 4a98 b23f e660 d0e5 7a5e 68bf
00000440: 66fa 3f2f febc b5bf 5490 0b73 4ae8 c0bf
00000450: acda d904 5af4 adbf 162c b66a 8ab8 a4bf
00000460: a79c 7b93 5c26 a8bf 1e00 8b79 9382 a53f
00000470: e92f 6be3 883c b5bf 7d2f d48d 7037 adbf
00000480: a0fe 938d 9dad aa3f 3a63 d526 4ce2 b1bf
00000490: 21d3 7c02 714b b6bf be9f eb73 6860 7a3f
000004a0: 0f39 c4cd dc56 98bf dfa2 0cea b8e4 be3f
000004b0: 286d 55ca 6686 b23f a0e0 86e1 dc63 82bf
000004c0: 9efd ebce c950 b8bf e164 0ab4 f445 c2bf
000004d0: 8583 7651 78dc b0bf 266c b643 b4e0 a8bf
000004e0: 1e36 cc29 04cb acbf 8107 2c85 cf5c a33f
000004f0: 68f9 5a9d ebcb b7bf f306 3f90 e012 b0bf
00000500: 580a 52c8 7d2d a33f 262a cad2 a4d2 90bf
00000510: c8f2 3b84 5140 97bf 904c b715 c608 943f
00000520: ba74 edfc 607c 7b3f c3c9 d4f8 3541 ae3f
00000530: e801 0dbc ea6e a63f 9adb 47a1 0ab7 833f
00000540: 4902 a08b 8d89 9bbf 389e f8e7 bcd6 a5bf
00000550: 1b2a 713c 0521 8dbf 79ab 7c7e 66c4 73bf
00000560: d4fd 9902 49cc 82bf 6450 92cd 7d03 9f3f
00000570: 5416 65c4 f116 9abf 1e1f 03fc 076f 8abf
00000580: 6dd9 ddca 145a a93f 0f75 9412 88bd a4bf
00000590: 6522 376d 1c91 aabf 1a3b cd38 590d 903f
000005a0: f7b7 d9b8 e030 75bf a411 d3ec ea9e b73f
000005b0: d253 6030 f521 b03f c0ca aebf 7f25 713f
000005c0: eb34 d20b a578 acbf fdbe 0f60 f3c9 b6bf
000005d0: bfca b401 393a a1bf e0fb 4d4b e825 95bf
000005e0: 59bb 4931 dc6b 9bbf f1db 26f9 bd3a a53f
000005f0: f00e 9abf e059 acbf 8074 ce46 0970 a0bf
00000600: 7a34 f968 2918 ae3f 8874 dd5a 6097 aebf
00000610: 59c6 10a2 24a8 b3bf 3066 1b8b 7cec 8e3f
00000620: 46cf c1d4 26db 8fbf 326d dc1d a6af be3f
00000630: 1131 9323 bdcd b33f 6199 2d57 a8f8 51bf
00000640: ffe4 0af9 3166 b5bf fcde 533b 2af1 c0bf
00000650: c1a3 26d8 25ea adbf 5b05 aefc 2668 a3bf
00000660: c051 b108 b51f a8bf 9af4 d557 bb31 a73f
00000670: 2613 8277 a8e1 b5bf fc6d 001d d1d5 abbf
00000680: ec58 56df f305 af3f 7bed ef01 4d13 b4bf
00000690: c6a2 0808 a723 b8bf aab5 40cc 3b14 7d3f
000006a0: 3fa7 1178 8467 99bf bb52 8d83 044d c13f
000006b0: 1b97 1c13 1842 b53f f1e1 0a1d 25dd 7ebf
000006c0: aed7 31f3 4b6b babf 5eb9 9ba0 570d c4bf
000006d0: 6a02 f802 c094 b2bf 6841 9496 9ff6 a9bf
000006e0: 484e 24e4 3aa2 afbf 74d0 ccce 92f5 a63f
000006f0: 81ce 8738 097c babf 8039 c5a4 60a5 b1bf
00000700: 53a6 f7c5 19cd ac3f 4e64 c70e 0f66 b5bf
00000710: 580c c5a5 8879 babf c2b8 e379 5d8f 723f
00000720: 5b18 5e99 fecb 9fbf 49ca a7b4 fe2c c13f
00000730: d790 9b7b 5a7d b43f aa8d 8ef8 fe88 8abf
00000740: 2dcf f03a 84b5 bcbf 9501 09e7 7d39 c5bf
00000750: e811 a140 990c b4bf 7ad4 11d7 ed0c afbf
00000760: 17e8 e836 121d b1bf ef60 70f7 aafb a43f
00000770: 1e33 ff03 25c6 bbbf a2b3 ce57 c97c b3bf
00000780: 4d65 5368 1aa4 a43f 4856 742c 9ced 97bf
00000790: d818 3cde cf9e a1bf dd1b cf08 aa93 903f
000007a0: 076e b462 4f39 413f f0de 702a 3276 b23f
000007b0: 8262 6c47 25d4 a93f 9983 2fac 6998 7c3f
000007c0: 5800 50bb 301e a2bf 5452 6f57 baa5 aebf
000007d0: d046 e9fd d438 94bf 5a7b 5362 38e5 86bf
000007e0: b1d7 bb0c e3d5 8bbf 6af9 9d5c c375 a23f
000007f0: 1b17 60e7 ccf2 a3bf a6d5 0543 fbf5 92bf
0.027487465809233124 -0.0037752956327832803 -0.0040174129097282855 0.017145731410902414 0.009237516947048387 0.0376064052133288 0.029520042834424408 0.010480247896670397
-0.006820239892691317 -0.013235059577190077 -0.0002999621124094029 0.002920162912852202 -0.0007714419890401875 0.024756489601987973 -0.006630126276816899 -0.0018537668929586482
0.03492625944864805 -0.017919243352039448 -0.02464912701317043 0.01707464709642594 0.0029299993811749115 0.06042002329330612 0.0432345591579132 0.007468702720927222
-0.029210358731779084 -0.0497860978385954 -0.016124774624206067 -0.007966509050321922 -0.01215073891898474 0.02929632726542182 -0.02590512216244573 -0.015563059068917643
0.04187724208960375 -0.03359683739911394 -0.04371687731206408 0.016283666509183017 -0.004894444001912671 0.08350396307902556 0.05389480624801042 0.0052358620859135
-0.05134671606051879 -0.07871237079067682 -0.029539751380985337 -0.0203178911769058 -0.02401102892844316 0.03591883109308776 -0.04800219155577319 -0.02887869673483448
0.046519965777804775 -0.04786547971521665 -0.06250228840677782 0.012875773882501083 -0.011881103458002333 0.096558680749031 0.061464652388985526 -0.0005200867038365172
-0.06826075296681937 -0.10655445792976093 -0.04567549838367514 -0.0304278811621836 -0.038314079175382605 0.03656862057087743 -0.06638807304241003 -0.04369316825414479
0.044762365670525314 -0.05801664025843576 -0.06961446277737883 0.006738200195681623 -0.019151733844502975 0.10508386980940468 0.06508965186767762 -0.004607151693314502
-0.07649913516337978 -0.11815821444175531 -0.052485464892756156 -0.03824015126073653 -0.04500971970457316 0.034834206050302394 -0.07637259103570201 -0.05053459003858683
0.03041539240096994 -0.00814528411093539 -0.015082189436839175 0.015772195462557575 0.009728004803466176 0.04589457746427832 0.037543028972069674 0.011314286171417158
-0.016057697591496157 -0.026109376377987895 -0.00542932244378528 -0.001607652799986942 -0.002080000731849793 0.030603950244139748 -0.018159137570221435 -0.00450447548431706
0.044001902840166626 -0.027317358261806632 -0.03488443785558868 0.018749746307783744 0.0003890530068529915 0.07706075925856537 0.05182250226781633 0.0075173706981746455
-0.0405205960310431 -0.065959024722464 -0.023587653482337663 -0.015010749347337444 -0.01842137526320935 0.03472962081004773 -0.039442526384088815 -0.02294506665663539
0.05146116871588729 -0.04831686136203777 -0.06084467984117003 0.01430489448807592 -0.009659133379634314 0.10211406116167805 0.06536086135627375 0.001326974891356439
-0.06585676851900837 -0.10423260977658746 -0.042813246168033815 -0.02962510135543214 -0.03632498718629821 0.03904512559522091 -0.06440951932583519 -0.03905493107444797
0.052762103485545095 -0.06314175826676459 -0.07834363243380356 0.012840069135536644 -0.01654628244794154 0.11546257629478526 0.07263625987937218 -0.002974739107696067
-0.08491505292475096 -0.1320889531845092 -0.058504880039369794 -0.040470433737105946 -0.04716767597511167 0.04201184137991752 -0.0829549365254817 -0.057063596070377344
0.05210583070038166 -0.06985927532276728 -0.08708864508373583 0.006439598101429965 -0.023768854197492802 0.12067752565475186 0.07236330451762696 -0.008979535706075403
-0.09498273183634473 -0.1427598837952138 -0.06586410511819281 -0.048589356675812476 -0.05623639116502609 0.03781746388086927 -0.09295532790836136 -0.06278804322849023
0.037456446364576734 -0.01642854248579275 -0.022706292816098622 0.019564719272079645 0.006710413798683474 0.05909126913538245 0.043814979033871826 0.009626467749496648
-0.026891910216365642 -0.042653945271294125 -0.014223137766880936 -0.004825973861254045 -0.009178705589191795 0.03028675620278455 -0.02547815095137758 -0.01290708768682652
0.04951539017104065 -0.040508510845237315 -0.051888359386400386 0.015675920574092485 -0.005173566647142628 0.0922686412987504 0.06301815444051265 0.004186152475926519
-0.055607946103103455 -0.08901902289630566 -0.03364732881381859 -0.02065241775153115 -0.026778641231824583 0.04146379152683 -0.05537321413888019 -0.03210476865135892
0.05877808958448667 -0.0597486601752531 -0.07678441006353277 0.015099499697885127 -0.015554717414694285 0.11986768940953565 0.07735807531861762 -0.0010968822432118818
-0.08359062509670777 -0.1323597707448626 -0.058427031169521644 -0.037903993935297385 -0.047116906462778996 0.04530129859174643 -0.0854745189445337 -0.05436566809677498
0.060592289936879457 -0.07841950700087878 -0.09429401346336438 0.007099374375724757 -0.02480895026057017 0.13516289161147718 0.08303976503938452 -0.007535119032290969
-0.10319971740122355 -0.15665717451288236 -0.07258224556427142 -0.05070971215366421 -0.06178459200796432 0.0448423268739199 -0.10345513944758446 -0.06892971060481123
0.05625229398340239 -0.08358854399502144 -0.10341695830452247 0.004531254902970074 -0.03105161486703199 0.13418563672128617 0.08003774183049771 -0.012956611595490514
-0.11214472235661495 -0.16581701069845836 -0.07831724002705409 -0.060645515922183216 -0.06684984055110053 0.04098257322783804 -0.10849219653682637 -0.07612284082160994
0.04031450770862453 -0.023367347920688425 -0.03441476428820217 0.016188294208202215 0.0005256307244140842 0.07211602722315624 0.05044666764132889 0.006981289657205369
-0.03538658415345769 -0.05985815350837656 -0.019748046872627267 -0.011179390431093662 -0.013591550661185755 0.03605471139506984 -0.03896179508596572 -0.01851646992277769
